Backend/APP/lstm_model.pth (torch, 311398 bytes, 6 tensors)

lstm.weight_ih_l0 f4 [512, 18]
000000 4a c4 df 3c fe d5 4b bc 96 e9 e6 3d 30 7a e0 3d
       0.027315278 -0.012441156 0.11275022 0.109608054
000010 a1 94 b1 3d 88 e1 24 3e 90 e1 df bd 5e 7c 05 bd
       0.08670927 0.16101658 -0.109316945 -0.03258931
000020 4e 46 e7 3d ba 4d 77 3d 66 18 ce bd 62 71 fa bb
       0.112927064 0.06037686 -0.100632474 -0.007642911
000030 58 9b 70 3d f5 ac b0 3d 46 d6 07 3e 80 b6 24 bd
       0.058741897 0.08626739 0.13265333 -0.040213108
000040 e6 8f b0 3d 54 5b 91 3d 09 e0 7b 3d c0 8f 58 3d
       0.086211964 0.070974976 0.061492953 0.052871466
000050 c6 ad 2f 3e c9 0c ab bc 02 d3 c9 3d 28 76 f3 3d
       0.17156133 -0.02088012 0.098547 0.11887771
000060 8a f3 f4 bd 87 98 23 3d 05 d2 a2 3d 0f 0b 26 3e
       -0.11960514 0.039940383 0.07950214 0.16215156
000070 6d ee 51 bd 48 d2 05 bc fe a6 2f 3e ee 02 62 3d
       -0.05125277 -0.008167811 0.17153546 0.055178575
000080 1b dc ec 3d fa 87 2b 3d 40 6f 31 bd 30 be 11 3e
       0.11565419 0.041877724 -0.043318987 0.14232707
000090 a4 a0 77 3c 1b 5e d4 3d 2e 17 2f 3e 7b dd e7 3d
       0.015113983 0.10369512 0.17098686 0.11321541
0000a0 1b 3d 1b 3e 2f 2e b9 3d 47 35 d9 bd c0 6a 1d bd
       0.15160029 0.09042012 -0.10605865 -0.038431883
0000b0 87 25 19 3e b7 89 8e 3d 5b 0a 84 bd e4 14 a7 3d
       0.14955722 0.06959861 -0.06447288 0.081582814
0000c0 2e db 17 3d 43 61 3b bd a3 1a 0b 3d 04 5d 22 bd
       0.03707426 -0.045747053 0.03396095 -0.039639488
0000d0 cd f8 aa bd 59 cd e3 3d 4f 06 94 3d 5e 2c b1 3d
       -0.08348236 0.11123151 0.07227766 0.086510405
0000e0 92 90 c4 3d b6 18 bb 3d 6b ae 2a 3e 9c c9 ed 3b
       0.09597887 0.091355726 0.16668098 0.0072566997
0000f0 88 6a 5b 3d f1 f2 1b 3d 7a 94 11 3d 20 c4 2e bd
       0.053568393 0.038073484 0.03554199 -0.042667508
000100 60 13 e5 3d c2 9b eb 3c 19 ac fa bc 66 b2 21 3d
       0.11185336 0.028760795 -0.03059964 0.039476775
000110 89 58 1d 3e ce 1f 14 3d a4 bb 28 3e 27 c4 7f 3d
       0.15365805 0.036163144 0.16477829 0.062442925
000120 13 56 0a 3d b2 ee ea 3d 2d 7d 28 bd f9 63 49 bd
       0.033773493 0.11471309 -0.041135002 -0.049167607
000130 fe cf 18 bd fd 74 06 bd fe a1 69 bb e1 a6 2d 3e
       -0.03730773 -0.032826412 -0.0035649533 0.1695819
000140 27 fb 85 3c d1 4d 77 3d 09 0a fe bc f1 1e 63 bc
       0.01635511 0.060376946 -0.031010645 -0.0138623575
000150 3e 5f f2 3d f2 49 5b bd d8 40 af b9 d0 83 f3 3c
       0.11834572 -0.053537317 -0.00033426913 0.029725939
000160 c6 52 fd 3d fe 0e b6 3d 22 5b 55 3d 69 3b 17 3d
       0.123693034 0.08889578 0.052088864 0.036921892
000170 6b 9c b6 3d 86 f0 2c 3c 6d 59 cb 3d 2d 5e 23 bd
       0.08916553 0.010555392 0.09929166 -0.039884735
000180 22 65 c1 3d 87 41 12 bd af 3f 94 bb 48 6e ce 3d
       0.09443118 -0.035707023 -0.0045241932 0.10079628
000190 95 c3 d1 3d 6c b4 e6 3c 2e 28 04 3e 80 0d 41 bb
       0.102423824 0.028162204 0.12905952 -0.002945751
0001a0 cd 38 02 3e 25 a2 98 3d 97 c9 d5 bc 14 10 bd 3d
       0.1271698 0.074528016 -0.026097102 0.09231582
0001b0 44 03 89 bc f6 44 d3 bc c7 66 6e bc 68 f2 d1 3d
       -0.01672519 -0.02578972 -0.014550871 0.102513134
0001c0 02 82 05 3e 66 80 cd bb d6 7d 20 3d 14 16 a1 3e
       0.13037875 -0.00627141 0.039182507 0.31462157
0001d0 75 59 50 3d 2e 13 68 ba 67 27 8d bd b9 0d 49 3e
       0.050866563 -0.00088529557 -0.06892281 0.19634141
0001e0 32 6f 96 3d 42 67 68 3d 6e c9 20 3e 0b b2 ad bd
       0.073454276 0.0567391 0.1570184 -0.084812246
0001f0 b6 39 cc 3d 30 36 33 3d 06 74 b7 3d 9f be d9 3c
       0.09971945 0.04375285 0.089576766 0.026580153
000200 c7 b4 30 3e 31 d0 c1 3d bd 8f 62 3d 2d 74 b5 3a
       0.17256461 0.094635375 0.05531286 0.0013843827
000210 ca d3 48 3e 9e 8e a4 3c ea 8e 9b 3d 67 5a 5c 3e
       0.19612041 0.020087536 0.07595618 0.21518861
000220 fe 23 1e 3e 96 5d 58 3d 4c 24 12 3e a0 ea f4 bc
       0.15443417 0.052823626 0.14271659 -0.029897034
000230 38 94 e6 3c 23 6e a2 bd 51 57 81 3d da 5d ef 3d
       0.028146848 -0.07931163 0.063154824 0.11687823
000240 ec 80 f3 3d 22 e4 34 3e d7 23 9e 3d 19 25 b1 3d
       0.11889824 0.17665151 0.0772168 0.08649654
000250 7b 5a 49 3d f9 02 81 3d 85 e6 14 3d 37 19 ad 3d
       0.049158555 0.06299395 0.036352653 0.08452075
000260 af 40 fe bc e1 73 ca 3d fb e8 b4 3d 76 c1 1b 3d
       -0.031036703 0.098853834 0.088335 0.038026296
000270 93 cb 2d 3d 85 dd 7d bd 7f 85 2a 3e d8 32 d7 3c
       0.04243047 -0.061978836 0.16652487 0.026269361
000280 da b7 10 3e 36 28 f7 3d e8 1a d8 3d 1b 91 be bb
       0.14132634 0.120682165 0.10552007 -0.0058156378
000290 4c a9 67 3c 11 e7 1d 3e c1 b2 09 3e 47 34 c5 3c
       0.014139485 0.15420176 0.13447095 0.02407278
0002a0 d8 b1 37 3e 16 ec 05 3c 23 b1 b9 3d e0 ed 80 3d
       0.17938936 0.008173963 0.09066989 0.06295371
0002b0 d5 33 a1 3e 3d d2 45 3d e4 e7 da 3b 26 b9 0c 3d
       0.31484857 0.048296202 0.0066804755 0.03435626
0002c0 c6 1f 2a 3e c0 8e 84 bb 57 51 92 3d 9b 32 ef 3c
       0.16613683 -0.0040453374 0.071444206 0.029198935
0002d0 89 e1 ac 3d 01 79 ac bc 4c ce 4a bd fc 1e 2e 3d
       0.08441455 -0.021053793 -0.049513146 0.042510018
0002e0 51 c8 18 3d 34 9d 8f 3d 06 bb 77 bd ce ab b5 3b
       0.03730041 0.07012406 -0.060481094 0.0055441624
0002f0 65 e4 fc 3d 89 4f 5a 3d f2 ad 27 3d d7 2b c1 3d
       0.1234825 0.053298507 0.04093737 0.0943219
000300 5d dc b3 3d c5 aa aa 3d a5 a1 8c 3d bf 80 8f 3d
       0.08782265 0.08333353 0.06866769 0.07006978
000310 e5 b8 88 bc 49 06 6d bc 31 0d 52 3d 0d 3b a3 3c
       -0.016689727 -0.0144668305 0.05128211 0.019925619
000320 6e 3c 7c 3d f8 63 3d 3d c7 40 09 3e 9c 8a 14 3e
       0.061581068 0.046237916 0.13403617 0.14506
000330 5e 7e cb bd d1 14 2a bd bd 99 dd 3d 40 54 7d 3d
       -0.09936212 -0.04152376 0.10820339 0.061847925
000340 8b 44 a3 bd d0 19 69 3d 2c e7 8a 3c 98 d5 d6 3c
       -0.07972058 0.056909382 0.016955934 0.026224896
000350 b1 f4 02 3e 82 37 5c 3d 28 af f3 3d 9f fe 75 3d
       0.12788655 0.053763874 0.11898643 0.06005728
000360 9b 5a c7 3d 8e d4 b7 3d fc b0 1c 39 35 8c 9f 3d
       0.097340785 0.089760885 0.00014943251 0.07790414
000370 84 dd 06 3d 12 f9 48 3d ac 52 ae 3d f6 86 d9 bd
       0.032926098 0.049065657 0.08511862 -0.10621445
000380 d6 99 f5 3d 72 2d 2a bc 80 a2 28 3e 61 46 33 3d
       0.119922325 -0.010386812 0.16468239 0.04376829
000390 50 64 28 bb c1 44 8b bd 4d 01 0c 3e d0 cd ca bb
       -0.0025694557 -0.06800223 0.13672371 -0.0061890855
0003a0 5d e7 14 3d 82 02 6e 3d 05 ae 87 3d 31 ce 70 bd
       0.036353458 0.05810786 0.066249885 -0.05879039
0003b0 70 00 e1 3d 86 56 60 3e 01 25 a7 bd ed d6 72 3e
       0.109864116 0.21908006 -0.08161355 0.237148
0003c0 61 08 49 3e 44 b1 83 3e 68 ef 1e 3e da 82 38 3d
       0.19632103 0.2572118 0.15521014 0.045046665
0003d0 01 1d 82 3e 87 99 93 3e 7f 32 05 bd a0 2b 9e 3c
       0.25412753 0.2882807 -0.03251886 0.019307911
0003e0 fc 11 93 3e 42 72 a7 bd e6 7a 07 3e d9 7c b2 3d
       0.28724658 -0.0817609 0.13230476 0.08715219
0003f0 0d 46 86 3c 98 a2 78 bd 90 05 a2 3d 4e 18 e2 3d
       0.016390825 -0.060701936 0.07911217 0.11039792

lstm.weight_hh_l0 f4 [512, 128]
000000 00 cd 16 be 3b 25 a6 3c 63 3e 14 bc 3b 7b 00 be
       -0.14726639 0.020281425 -0.009048077 -0.12547009
000010 9e 1d 04 bd e3 36 b1 3d c6 46 1b 3d eb f1 82 be
       -0.032254808 0.08653047 0.03790929 -0.25575194
000020 99 8d 9c bd d7 22 75 bd 0b 37 57 bc 11 d5 a7 bd
       -0.07644195 -0.05984768 -0.013135682 -0.08194936
000030 dd ff c8 3d 0c 86 15 be 7d 2a 99 bd 7c f7 93 bd
       0.09814427 -0.14601916 -0.07478807 -0.07224938
000040 49 d7 e6 bd d7 ff c4 3d a0 93 a6 bd f1 d8 8d bd
       -0.11271531 0.0961911 -0.08133626 -0.06926144
000050 6d 5b 9b 3c d6 7a aa 3d 19 b6 bc 3c 2d c1 9b bd
       0.018964494 0.0832421 0.02303605 -0.07605205
000060 56 47 99 3d 5d 3c 95 bd 1b d7 b3 bd ed c1 50 bc
       0.074843094 -0.07286904 -0.087812625 -0.012741548
000070 d6 c6 e6 bc 01 62 09 be 31 53 a4 3d 83 c4 c8 bc
       -0.028170984 -0.13416292 0.0802368 -0.024507767
000080 05 31 85 3c 60 ef 60 3e 1f d2 ec bd 49 b7 b8 3c
       0.016258726 0.21966314 -0.11563515 0.022548335
000090 82 98 ef bc f1 8f ab bd 00 c2 26 3d c3 58 c5 3c
       -0.029247526 -0.08377064 0.040712357 0.024090176
0000a0 6b bc 55 3d 88 9c 93 bd a6 2c 42 bd f1 ae 36 bd
       0.052181643 -0.0720759 -0.04740586 -0.04460043
0000b0 b1 01 d7 3d 11 7e 2c bd a8 d9 95 bd 00 e5 5e bc
       0.104983695 -0.042112414 -0.07316905 -0.013604403
0000c0 3f 02 f7 3c 41 a6 92 bd cc 87 e6 bd f3 a0 f2 bb
       0.030152438 -0.07160617 -0.1125637 -0.0074044405
0000d0 0d 9b ad bd d1 74 9e bd 26 e2 2a 3e 8f cd f2 3d
       -0.08476839 -0.07737125 0.16687831 0.118556134
0000e0 bb ea c4 3d 1e bd 2e 3d 0f 9b f6 bd 40 16 d9 3d
       0.09615084 0.042660825 -0.12041294 0.10599947
0000f0 47 de c1 3d 03 d8 00 bd ba 28 83 3d a2 b0 e2 3d
       0.09466224 -0.031456005 0.06404252 0.11068846
000100 d9 e4 b0 3c 88 f0 1c 3d 28 0b 9e bd 40 ad 8e 3c
       0.021593498 0.038315326 -0.07716972 0.017416596
000110 90 f2 13 3c e4 79 c0 bc cd 6b 11 3e 54 38 05 bd
       0.009029999 -0.023495622 0.14201279 -0.03252442
000120 9a 0e 09 bd 02 6a 10 3c f9 7b a1 bc 24 2b cc 3d
       -0.03346119 0.008814337 -0.019712435 0.09969166
000130 0c f2 fe bc 6b ef 98 3c 53 47 13 3d ee 4d 29 3d
       -0.031121276 0.01866885 0.035956692 0.041334085
000140 81 6d a9 3d 6a a1 13 3e e1 64 25 be bc 66 22 3c
       0.08272839 0.14417043 -0.16151763 0.009912189
000150 ab f3 fc 3d 17 4f 76 bd 0f 8d 95 3c 11 ad 34 bd
       0.123511635 -0.06013402 0.018255739 -0.04411036
000160 29 b2 09 3d 30 d2 09 be 49 8b b9 3d dc f2 71 3d
       0.033617172 -0.13459086 0.0905977 0.0590695
000170 06 27 0f bd 40 6a 08 3e 33 1f 04 3d 72 de 02 3e
       -0.034949325 0.13321781 0.032256316 0.12780169
000180 d5 02 f3 3c 33 65 45 3a fc 6c 99 bd e1 9d af bb
       0.029664436 0.00075300335 -0.0749149 -0.005359397
000190 3b 47 f9 bc 82 05 f1 bd 9d 5d cd bc 52 78 21 bd
       -0.030429473 -0.11768629 -0.025069052 -0.039421387
0001a0 08 cd 21 be 5c 94 03 3e bf 60 2f bc c0 f0 f2 3d
       -0.1580087 0.12849563 -0.010704218 0.11862326
0001b0 9c 84 03 3d 11 4b 09 bd 2d b7 dd bc 4a 0b 07 3e
       0.032108888 -0.033518855 -0.027064884 0.131879
0001c0 cd b9 dd bc 96 83 07 3e 37 49 7b bd c7 45 b9 3c
       -0.027066136 0.1323379 -0.06134912 0.02261628
0001d0 ff 98 36 3e 91 9e 64 bd 6c 70 a3 3c ef 21 00 3e
       0.17831801 -0.055815283 0.019951068 0.12512945
0001e0 6a 18 c3 3b ca 11 16 3e 9f e6 60 3c 81 d9 54 3d
       0.005953838 0.14655223 0.013726859 0.05196524
0001f0 c0 ce 4a bd e9 b7 c5 bd 80 0e 06 be eb f9 0d be
       -0.04951358 -0.09654219 -0.13091469 -0.13864867
000200 2c 35 89 bd 2c 04 9f bd 29 d7 80 3c 45 7e 74 bd
       -0.06699595 -0.077644676 0.015727596 -0.059690733
000210 57 53 9a bb 42 8b 03 3e a1 24 ad 3d c2 60 0a be
       -0.004709642 0.12846091 0.08454252 -0.13513473
000220 28 e1 0a be 46 c6 d7 bd cb 5d f4 3c 3c 34 ae bc
       -0.13562453 -0.105358645 0.02982988 -0.021265142
000230 cf ab a1 3b cc 91 d7 bd e7 c4 80 3b cb 00 a0 bd
       0.0049338113 -0.105258554 0.0039297226 -0.07812651
000240 3b b3 72 bd 06 73 86 bc 16 1b f5 bd 31 36 25 3c
       -0.05925296 -0.01641227 -0.11968057 0.010083721
000250 a2 20 41 bc 53 11 28 3d c7 bc f9 3d 36 f9 b1 bd
       -0.011787565 0.041032147 0.121942095 -0.08690111
000260 9d 7a 84 b9 41 57 a5 3b 5f 72 a8 bd a7 af ba bc
       -0.00025268356 0.005045802 -0.082249396 -0.022788836
000270 a2 2b e9 3d e5 1b 0e be da 00 45 3d 2a 99 61 bd
       0.113852754 -0.13877828 0.048096515 -0.05507771
000280 a1 f1 cb 3c e7 53 fa 3d d9 8e 19 bd 5c 6a 35 3c
       0.024895491 0.12223034 -0.037489746 0.011072721
000290 aa 31 59 3d 81 6a a9 bd 1f df 99 3c d3 72 36 3e
       0.05302588 -0.08272267 0.01878315 0.1781724
0002a0 e3 24 c6 3d 21 3e 6d 3c a4 1a ac bd 64 fb e3 bd
       0.09675004 0.014480145 -0.08403519 -0.11131933
0002b0 51 74 87 3d d5 d5 80 bc 4a 7c c3 bc 14 3b 5f 3d
       0.066139825 -0.015726963 -0.023862977 0.0544997
0002c0 43 5b bb 3d 7a f5 ff 3c 75 f8 d4 bd 97 5e de ba
       0.09148266 0.031244982 -0.10398952 -0.0016965446
0002d0 4d 94 a4 bb c8 76 f1 bc 0b 09 fd 3d 2c 09 b2 3d
       -0.0050225616 -0.029475585 0.123552404 0.08693156
0002e0 99 95 55 bc de 7d 05 3e ce 72 8f bc 46 30 a4 bc
       -0.013036155 0.13036296 -0.017510798 -0.02004255
0002f0 e2 67 02 3e 5f 8a 86 3b 8c 16 01 bd 9c 94 fe 3d
       0.1273494 0.0041058506 -0.031515643 0.12430689
000300 c4 4e a7 bc 61 29 0c 3d 59 35 38 3d 7d 26 8c 3c
       -0.0204233 0.03421915 0.04497275 0.017108196
000310 3a e0 04 3d 68 1e fb 3c f2 3a ac 3d 1e 9b 81 bb
       0.0324404 0.030654147 0.084096804 -0.003955259
000320 c6 10 83 3d 0e 37 02 3e a9 bb 92 bd 29 45 94 3d
       0.06399684 0.12716314 -0.071646996 0.07239754
000330 96 26 96 3c ac 6f b6 bd cd aa 1a 3e 24 a1 96 3c
       0.018328946 -0.089080185 0.15104218 0.018387385
000340 a0 f6 96 3b b8 ff 81 3d 31 bb 5f bc e2 d5 9e 3d
       0.0046070367 0.063476026 -0.01365547 0.07755639
000350 34 22 03 3e bc be e2 3d d6 b2 ac bc 92 26 76 3d
       0.12806016 0.11071536 -0.02108137 0.060095377
000360 68 2b 03 bd 82 8f e2 bc 8e 57 48 3d 14 fa 9b 3d
       -0.032023817 -0.02765632 0.048911624 0.07616058
000370 fd ef 16 bd 79 7c ba 3d 79 50 09 3e a0 c2 b7 3d
       -0.036849964 0.091057725 0.13409604 0.08972669
000380 b0 7e 71 3d d9 96 34 3d 17 78 f6 3c c0 6c a8 3d
       0.05895871 0.044089172 0.03008656 0.082238674
000390 5c 14 6f 3c fd 11 08 bd ad 9f c2 3d 2a 75 50 3d
       0.014592256 -0.03322028 0.09503112 0.050892986
0003a0 ad ff 90 bd 52 c6 eb 3a 3b ab 95 bd 9a 6e 08 bd
       -0.07080016 0.0017988181 -0.0730805 -0.033308603
0003b0 32 03 49 3c 8d 16 4c bc 6d 3f 9f 3d 3b 6b 9f bd
       0.012268828 -0.012456548 0.077757694 -0.077841245
0003c0 2b 2c 47 bd dd 06 82 3d 05 7f 47 bd eb 0c 11 3b
       -0.048626106 0.06348965 -0.04870512 0.0022132944
0003d0 07 1d 7a 3c 44 99 eb bd 87 d6 c2 bd 4f 4d 5d bc
       0.01526571 -0.115038425 -0.09513574 -0.013507201
0003e0 9d 4f 5e 3c 87 a6 f7 3d 23 f8 23 be 33 3b bb 3d
       0.013568786 0.120923094 -0.16012625 0.09142151
0003f0 e3 1f 36 bc 34 51 51 bd 02 af da bd 9e b0 79 bd
       -0.011116001 -0.051102832 -0.10677911 -0.06095945

lstm.bias_ih_l0 f4 [512]
000000 17 21 20 3e 9c 1f 3f 3d 7f fe dd 3d 32 7d 8d 3c
       0.15637623 0.046661004 0.10839557 0.017271612
000010 48 86 37 bd 3c 22 82 3d ed c4 aa bc e5 0d 34 3e
       -0.044805795 0.06354186 -0.020845855 0.17583425
000020 81 be bd 3d 91 37 83 3d 73 9a b5 bc 8b 30 30 bb
       0.09264851 0.06407083 -0.022168374 -0.0026884403
000030 41 c6 90 3d 9b 9b 9a 3d 65 4b 4a bc b6 6e de 3d
       0.07069064 0.07549211 -0.012347077 0.1086096
000040 67 39 83 bb c7 f5 15 3d 70 60 d6 3d 21 b3 eb 3d
       -0.0040046456 0.036611345 0.10467613 0.115087755
000050 83 c1 a1 3c c6 f2 6c bd c8 36 24 3e a8 35 06 3e
       0.019745594 -0.057848714 0.16036522 0.13106406
000060 ca 08 13 3e d6 a4 25 3e db 1a 05 3e c0 5b 88 bb
       0.14358822 0.16176161 0.12998526 -0.004161328
000070 48 0f 90 3c 09 45 cd 3d 55 63 8f 3d 2a ac 8a 3d
       0.017585412 0.10022933 0.07001368 0.06771119
000080 bc 0a 86 3e df 94 21 3e 51 ad d3 3d 91 c3 ea 3d
       0.26180065 0.15779446 0.10335792 0.114630826
000090 ed 51 8b 3b 39 ad 87 3d 61 92 87 3d 59 64 2b 3e
       0.0042517097 0.066248365 0.066197164 0.16737498
0000a0 57 ad 40 3d 98 14 08 3c 07 67 fd 3d 34 7a fa 3d
       0.04704031 0.008305691 0.123731665 0.1223034
0000b0 6e 5f a2 bb 26 bf 71 3c 85 fd 4b 3e 87 1e ff 3d
       -0.0049552238 0.014755046 0.19920929 0.124569945
0000c0 bf c7 4e 3c 48 cb 4d 3d 10 35 94 3c 09 0c 08 3e
       0.012620865 0.050242692 0.018091708 0.13285841
0000d0 9d 10 cc 3d 76 9d 0d 3d de 2e 4b 3e bc 06 d5 3d
       0.09964106 0.034573995 0.19842097 0.10401675
0000e0 d0 f5 ce bc f0 59 73 3e 4c fc 52 3d a5 0d a5 3e
       -0.025263697 0.23764777 0.05151014 0.32236972
0000f0 83 3d c9 bb 4c 4a 16 3d 54 44 37 3d 20 f5 b6 3c
       -0.006141366 0.03669195 0.044742897 0.022333682
000100 9d 86 09 3e b0 74 48 bb 7d 2b 8b 3b fa 22 b1 3d
       0.13430257 -0.003058713 0.0042471276 0.086492494
000110 2e 84 66 3d 47 19 78 3c 52 08 2d 3e c5 76 f0 3d
       0.0562784 0.015142745 0.16897705 0.117414035
000120 46 32 05 3e bf 6a 9e 3c dc 7f 88 3d d7 f8 de 3d
       0.13007459 0.01933801 0.06665012 0.10887306
000130 72 f8 0d 3c 8c 01 a5 3d a3 c5 d7 3d e9 de 9f 3d
       0.008665191 0.08056936 0.10535743 0.078061886
000140 fa 16 03 3d 5e b9 d2 3d 58 29 c4 3d 18 be 68 ba
       0.032004334 0.10289262 0.09578198 -0.0008878424
000150 37 17 fa 3b c3 eb 09 3c e0 5a cb 3d 84 02 b1 3d
       0.007632162 0.008418026 0.099294424 0.08643058
000160 80 dd 31 3d 5b 4b b6 bc 5d 32 09 3d db b5 ea 3d
       0.04342413 -0.02225273 0.033495296 0.114604674
000170 1a b5 a1 3d 5e 24 22 3e 7d 72 f2 3d cc 59 89 3d
       0.078958705 0.15834185 0.11838243 0.067065805
000180 a7 14 96 3d 27 d0 c1 bc 59 eb 00 bd 99 1e f1 3d
       0.07328158 -0.023658825 -0.031474445 0.11773414
000190 81 e9 b5 3d 0e 7d 77 3c e4 ae 23 3d 42 38 e7 3d
       0.08882428 0.015105499 0.03996171 0.11290027
0001a0 f2 ea 4c 3d 7e 64 98 3a 0a 03 5a 3d 23 cd 8c 3d
       0.05002875 0.0011626629 0.053225555 0.06875064
0001b0 29 e1 2d 3e 95 ec 3c 3e 5b 8b 9d 3b 8c 9c 2e 3e
       0.16980423 0.18449624 0.004807872 0.17051905
0001c0 14 56 76 3e 18 07 c4 3d f7 8b e4 bb c7 b1 41 3e
       0.24056274 0.095716655 -0.006974693 0.18915473
0001d0 bd 6e 20 3e 81 b9 e9 3d 20 82 bd 3d 8e a8 03 3d
       0.15667243 0.11412335 0.09253335 0.03214317
0001e0 e6 8c e6 3d d7 63 6c 3c 8c 92 bf bc a5 a7 19 bd
       0.11257343 0.014428101 -0.023385309 -0.037513394
0001f0 3f 10 1e bd 38 69 44 3c 55 03 03 3e 8d d9 c2 3c
       -0.038589712 0.011987977 0.1279424 0.023785377
000200 35 8b 1a 3e de c3 d1 3d 21 76 13 bd c4 c6 8d 3d
       0.15092166 0.10242437 -0.03600133 0.06922677
000210 1d 02 9e bb 14 29 5b 3d a7 dd 81 3d 5c f9 ba 3b
       -0.0048220293 0.053505972 0.06341105 0.0057059955
000220 f9 80 c1 3c ce fc fd 3d b5 ff 0b bd 73 3b 8d 3d
       0.02362107 0.12401734 -0.034179408 0.06896105
000230 75 50 f1 3c 9a 8b 66 3e c8 66 c2 3d 9e 01 50 3d
       0.02945731 0.22514191 0.0949226 0.050782792
000240 15 96 02 3c fa 10 54 3d d4 df 18 bd 91 68 75 3b
       0.007970353 0.051774003 -0.037322834 0.003744636
000250 4c df 5b bd dd 6c 91 3d ea df 91 3d f1 01 e0 bb
       -0.05367975 0.07100842 0.07122786 -0.006836169
000260 eb cc 24 bd 4d 1f 2c 3e 12 71 90 bb 39 0f d5 3d
       -0.040234488 0.16808815 -0.0044080103 0.10403294
000270 c3 bd d9 3b d5 13 19 3e fc 5e fc bc 8f 78 21 3c
       0.006644936 0.14948972 -0.03080701 0.009855404
000280 98 33 2b 3e fe 8a 6e 3e fe e3 d7 3d b2 77 7f bc
       0.167189 0.23295209 0.10541533 -0.015592502
000290 01 30 bf 3d 00 50 bf 3c 6c a4 1a 3d 9f 52 2d 3e
       0.09335328 0.023353577 0.03775446 0.16926049
0002a0 3d f2 38 3d d2 30 f3 3d 7e d5 dc 3d 72 e0 48 3c
       0.04515289 0.11874546 0.10782908 0.012260543
0002b0 f8 2a b0 3b 55 8f b6 3d 6e 87 c6 3c 49 f7 07 3d
       0.005376216 0.08914057 0.0242345 0.033194814
0002c0 fa ef 0c 3d 71 d1 51 3d 36 04 bc bd 7c 44 82 3d
       0.034408547 0.05122513 -0.09180491 0.063607186
0002d0 da 7f 7b 3c e3 85 98 ba 8b 13 9d 3d 4a 85 4d 3d
       0.015350306 -0.0011636581 0.07669743 0.050175942
0002e0 b9 62 82 3d fd 6e 56 3e c8 5d 6a bd 13 8a fb 3d
       0.06366486 0.20940776 -0.057218343 0.12282195
0002f0 88 20 10 bd 55 b5 80 bc 37 a2 2e 3d ba 3f 36 3d
       -0.035187274 -0.015711466 0.04263517 0.044494368
000300 cc 35 9f bd 02 40 10 3e 4d 61 9f bc 67 48 05 3c
       -0.07773933 0.14086917 -0.019455576 0.008134938
000310 19 2d f2 3b 54 15 92 3d 25 aa ee 3d 58 41 1c 3d
       0.00739063 0.07132974 0.11653546 0.038148254
000320 ae ea cf 3d 22 2a dd 3d a6 1e 0e 3c ae 0c 70 3d
       0.101521835 0.10799052 0.008674299 0.058605842
000330 81 70 a1 3d 6c 26 aa 3c 36 23 df 3d 03 2a 2a 3e
       0.078827865 0.020770274 0.10895388 0.16617589
000340 03 4f ec 3d 14 ac 00 bc 62 6c 8a 3d 0e 3e c3 3d
       0.11538508 -0.007853527 0.06758954 0.0953332
000350 87 9a c2 bc 94 9d ca bc 9b 72 1b 3d 85 9a d0 3d
       -0.023755325 -0.024733342 0.037951093 0.10185722
000360 55 fb f2 bb 7e 60 af bc 2f 25 3b 3d 42 9e c9 3d
       -0.007415215 -0.021408316 0.045689758 0.098446384
000370 69 4d 9e 3d c1 5a 7f 3d e9 c3 e6 3c 78 0f e2 bc
       0.077296086 0.06234241 0.02816959 -0.027595267
000380 f5 a9 b1 3d ca 87 cf 3d 8c fd bc 3d 07 47 b1 3d
       0.08674995 0.101333216 0.09228048 0.086561255
000390 92 e4 09 3d b9 ef 0b 3e 5f 79 aa 3d e1 aa 14 3e
       0.033665247 0.13665666 0.08323931 0.1451831
0003a0 ab 0f d7 3a a8 56 2f 3d da 05 0d 3e c6 45 69 bc
       0.0016407868 0.04280725 0.13771763 -0.014237827
0003b0 c5 03 30 3e 35 6b 1d 3d e7 f1 ec bc 1f 77 43 3e
       0.17188938 0.03843232 -0.028923942 0.1908841
0003c0 fe 0d 69 3c 8f 2a 25 3d b8 c5 71 3c a4 73 c8 3c
       0.014224527 0.04032379 0.0147566125 0.024469204
0003d0 7e cd f2 3d 3e de 0f 3e f3 45 e5 3d fd be 1e bd
       0.11855601 0.14049622 0.111949824 -0.03875636
0003e0 5f 4b 85 3a 7b d3 91 3d 84 f5 15 3d ff 02 dc 3d
       0.0010169557 0.07120415 0.036611095 0.10742759
0003f0 36 37 09 3e 47 b9 67 3d 8f ec 74 3d 4b 79 a3 3c
       0.13399968 0.05657318 0.059795912 0.019955298

lstm.bias_hh_l0 f4 [512]
000000 d7 56 06 3d e2 77 bd 3d 59 2b 19 3d e6 c2 09 3d
       0.03279766 0.092513815 0.037394855 0.033633135
000010 ec 21 08 bb 42 3a c7 3b 25 6c 2f 3d 83 7d 8c 3d
       -0.0020772172 0.006079943 0.042827744 0.06859877
000020 63 40 88 3c 74 cb 91 3d b8 19 a1 3d 7b 68 18 3d
       0.016632264 0.07118884 0.078662336 0.037209015
000030 9f 28 d3 3d 49 ae 98 3d 1c 1f b8 3d 99 ae 2a 3e
       0.10310482 0.07455117 0.08990309 0.16668166
000040 a2 2a 29 3b 12 32 39 3e 1c 30 00 3e b3 66 ee 3d
       0.0025812765 0.18085507 0.12518352 0.11640682
000050 a5 f4 09 bd 2a 28 6a bd 70 82 26 3e c1 0d 9d 3d
       -0.033680577 -0.05716721 0.16260695 0.07668639
000060 b6 40 02 bc 8c e1 38 3e f2 88 a1 3c 4d 8e 88 3c
       -0.007949999 0.1805479 0.01971862 0.016669417
000070 bd 82 c7 3d 20 3f 62 3d 61 87 92 3d c1 2b 01 3e
       0.09741733 0.055235982 0.07154728 0.12614347
000080 0d 7e 6d 3e 85 89 38 3e 0c 79 16 3e 66 8f 3f 3e
       0.23192616 0.1802121 0.14694613 0.18707046
000090 03 45 43 3d 3a 80 fc 3a fb 7c f6 3d 88 7d 4f 3e
       0.047673237 0.0019264289 0.12035557 0.2026273
0000a0 4c ff 3f 3c 45 ee c4 3b bd ad 38 bd 13 63 d1 3d
       0.011718582 0.0060098493 -0.045087565 0.10223975
0000b0 f4 21 91 3d 81 be b4 3c 35 29 17 3e b5 33 15 3e
       0.07086554 0.022063496 0.14761813 0.14570506
0000c0 ce 05 06 3e 6e 1f 1c 3e 75 c2 59 bc c2 c8 32 3d
       0.13088152 0.15246364 -0.013290991 0.04364849
0000d0 1b c9 29 3d 79 76 a5 3d 6d 4f 1b 3e e9 23 22 3d
       0.041451555 0.080792375 0.15167017 0.039585028
0000e0 9c 9d c2 3c 71 08 04 3e 4e c2 08 bd b2 65 8d 3e
       0.023756795 0.12893845 -0.03338843 0.2761665
0000f0 08 fc ab 3c e6 4a c2 3d b9 e5 0b 3e 46 f8 d8 3b
       0.020994201 0.09486942 0.13661851 0.0066213934
000100 c4 a1 8a 3d f9 fd 0a 3d 86 8a 59 3d 82 5b 30 3d
       0.067691356 0.033933613 0.053110622 0.04305602
000110 96 16 73 bc 4f 73 61 3d 35 4a 85 3a 89 41 b7 3d
       -0.014836928 0.055041607 0.001016921 0.08948047
000120 ae 1b e7 3d 9e c7 33 3e 86 c7 15 bd c7 4c d0 3d
       0.11284576 0.17556617 -0.036567234 0.10170894
000130 29 48 2a bc 53 ce 02 bd a8 05 22 3e a6 e8 53 3e
       -0.010393181 -0.031935047 0.1582247 0.20694217
000140 88 48 d7 3c b5 cf c1 3d 01 28 67 3c fa 2e 20 3d
       0.026279703 0.09463445 0.014108659 0.0391073
000150 f1 84 ca 3d 2d 79 40 3c 1f fc 4f 3d d6 0d 38 3e
       0.09888638 0.011747641 0.05077755 0.17974028
000160 ae 34 9d bc 10 14 78 3c 47 b4 91 3d ad 28 0d 3b
       -0.019190159 0.015141502 0.07114463 0.0021539137
000170 0e 9a 1a 3d bc dc 07 3e b0 7f 33 3d f1 a4 2c bd
       0.037744574 0.13267797 0.043822944 -0.042149488
000180 93 8d 2c bc 58 01 7d 3d 1e 42 94 3d 6e 1c 10 3e
       -0.010531801 0.06176886 0.07239173 0.14073345
000190 c8 b6 6e 3d a4 34 cf 3d 25 96 c6 3d da 9a 09 3d
       0.058279783 0.10117462 0.096966065 0.033594944
0001a0 db 0f ef 3d 03 27 01 bd ea 98 73 3d 2a 1e 06 bd
       0.11672946 -0.031531345 0.059472002 -0.03274361
0001b0 1d 81 07 3e f4 48 8b 3d b0 a8 c9 3d ed f8 d2 3d
       0.13232847 0.06801024 0.09846628 0.10301385
0001c0 71 8e 70 3e 5d 37 d3 3c 22 38 76 3d bd ad 4a 3e
       0.23491837 0.025783235 0.060112126 0.19792838
0001d0 e3 91 3b 3e cd 37 d5 3c 26 a5 f2 3d 1a 84 cc 3d
       0.1831737 0.026027584 0.11847906 0.09986134
0001e0 f4 5b cd 3d 3a bc 85 3d bf b4 7f 3d b0 d8 8d 3d
       0.10027304 0.06530042 0.062428232 0.069260955
0001f0 3d a5 7f 3d ab d8 af 3c c1 88 c3 bc 56 56 90 3d
       0.062413443 0.02146562 -0.02386892 0.07047717
000200 c5 2e 01 3d 38 5c db 3d db bc 9d 3d 94 5a ad 3d
       0.031538744 0.10710949 0.07702037 0.08464542
000210 07 36 fa ba f0 7d 00 bd f8 ac f7 3c 39 9b b5 3d
       -0.0019089588 -0.031370103 0.030233845 0.08867497
000220 48 46 02 3e 42 45 12 3e cb d7 d4 3d 89 54 04 3e
       0.12722123 0.14284232 0.10392722 0.12922873
000230 37 c5 b9 3d 18 00 56 3e 50 20 d2 3d 62 ce 5e 3d
       0.09070819 0.20898473 0.10260069 0.05439604
000240 74 b9 08 3d ca 6f 08 3e 41 39 b4 bc bd cb fb 3d
       0.033379987 0.13323894 -0.021999957 0.12294719
000250 66 de 8d 3d 06 e5 a8 bc c3 95 f8 bc 1a 84 e3 3d
       0.06927185 -0.02061702 -0.03034485 0.11109181
000260 73 23 26 bd a6 11 d6 3c 58 db 49 bd 97 bc 86 bc
       -0.04056115 0.026131462 -0.049281448 -0.016447349
000270 03 a8 8f bb 15 8d 1f 3e 7d 8f b8 3d ac 0f b0 3d
       -0.004384042 0.15581162 0.09011743 0.08596739
000280 bb b8 17 3e bf 56 be 3d 2d af fc bb fd 9a ab bc
       0.14816563 0.09293889 -0.0077113123 -0.020947928
000290 4d 05 2a bd b9 ad 9d 3d 13 ed 00 ba f1 bd e1 3d
       -0.04150896 0.076991506 -0.00049181393 0.110225566
0002a0 8a 94 9f 3c 43 78 d3 bb ba b3 45 3d 23 82 b2 3d
       0.019480009 -0.0064535453 0.048267104 0.08716228
0002b0 75 99 05 3d 51 05 95 3d fa 2c f3 3d d0 27 d3 3d
       0.03261705 0.07276405 0.11873813 0.10310328
0002c0 27 1b 17 3d 8b 4d 38 3d 85 05 89 3c b3 33 b9 3d
       0.03689113 0.044995826 0.016726265 0.09043064
0002d0 1d 0e f0 3c 00 0e 00 bd b5 c2 0a 3e be 16 07 bd
       0.029303605 -0.03126335 0.13550837 -0.032980673
0002e0 fe 90 f5 3b 3f f7 5b 3e 90 41 73 3d a2 96 38 3e
       0.007494091 0.21481036 0.059388697 0.18026212
0002f0 66 be 31 3d 42 65 4f 3d bc b7 e4 3d 26 8d c2 3c
       0.04339447 0.050633676 0.11167857 0.023748945
000300 2a 17 fc 3c 5a 40 97 bc 31 f8 74 3d 1c 4a 50 3c
       0.030772764 -0.018463302 0.059807006 0.012712982
000310 c4 a1 e6 bc a7 97 26 bd 92 36 c7 3c d9 52 8b bc
       -0.028153308 -0.04067197 0.024318013 -0.017007278
000320 41 d5 0c 3e a2 84 b6 3d e0 3a 80 3c e4 e3 74 3d
       0.13753225 0.089120165 0.015653074 0.059787646
000330 23 79 9c 3d 53 d0 88 3a 0e f9 9e 3d 15 56 b3 3d
       0.076402925 0.0010438062 0.07762347 0.08756653
000340 89 d1 2f bd f9 d1 10 3d 4a ed c6 3d 6c 9f 00 bc
       -0.042924438 0.035356496 0.09713228 -0.007850509
000350 57 b5 a2 3d 09 78 02 3e ac eb 9f 3d 86 bf 00 3e
       0.07944744 0.12741102 0.07808623 0.1257306
000360 5f 09 12 3e 6a 0f 5d bc 38 f3 9e 3d 71 e8 d1 3d
       0.14261387 -0.0134924445 0.07761234 0.10249413
000370 52 68 fd 3c dc e2 8e 3d d5 92 ba 3d d4 57 a7 3d
       0.030933533 0.06976864 0.09110037 0.08171049
000380 c1 77 2b bc 14 2b b5 3d dc 94 de bc 9c 44 33 3e
       -0.010465563 0.08846107 -0.027170591 0.17506641
000390 27 24 bf 3c 64 16 92 3d 98 4f 0d 3e 1a db 07 3e
       0.023332668 0.07133177 0.13799894 0.13267174
0003a0 bd a7 6c 3d 1d 45 cc bc 94 05 b6 3d 11 ca ea 3d
       0.057777155 -0.0249353 0.08887783 0.11464322
0003b0 fb 4d 0c 3e 34 f0 06 3d 97 97 56 3c f9 43 a6 3d
       0.13701622 0.03294392 0.013097665 0.081184335
0003c0 c8 49 fc 3c 5e f3 d9 3d 68 6f 0f 3e 22 cc 1e 3d
       0.0307969 0.10642122 0.14007342 0.038768895
0003d0 51 9b fd 3d 52 8b 22 3c 9d be 76 3d d3 d7 59 bd
       0.1238314 0.009920912 0.060240377 -0.05318434
0003e0 9e 9c cf bc 27 a5 07 3e 64 5f 61 3d a9 d7 ed 3d
       -0.025343236 0.13246594 0.055022612 0.116133995
0003f0 80 17 0e 3d a9 c0 52 3d 01 2f 4f 3c 2a 76 21 3e
       0.03469038 0.051453266 0.012645484 0.15767732

fc.weight f4 [11, 128]
000000 48 d4 19 3e 28 89 53 3e 00 80 c7 bd 8f f9 16 3e
       0.15022385 0.2065779 -0.09741211 0.14743637
000010 1e cc 4b 3e e5 d7 41 be 8a 31 d5 bd 9e 6b 8c 3e
       0.19902083 -0.18930013 -0.104098395 0.27425855
000020 6f 72 02 3e 93 01 fb 3d 99 da 2e 3e fc 55 1e 3e
       0.12738965 0.1225616 0.17075576 0.15462488
000030 fb ab c7 bd 5d a4 03 3e 66 d0 0c 3d e3 c9 10 3e
       -0.097495995 0.12855668 0.03437843 0.14139514
000040 bd c1 26 3e ac f8 04 bd 17 9e 02 3e e8 ea a5 3d
       0.16284843 -0.032463714 0.12755619 0.081014454
000050 6d a8 13 be 80 75 d9 bd e2 dc c3 bd 8a ad 7b 3e
       -0.14419718 -0.106181145 -0.095636144 0.24577919
000060 07 10 4b be e5 e8 66 3d 83 68 0b 3e 6c 84 24 3e
       -0.19830333 0.05637445 0.13614087 0.1606614
000070 ac e5 ec bc ce 64 55 3e cc d2 48 bd 7f 42 98 3e
       -0.02891811 0.20839235 -0.049029157 0.29738232
000080 fc d6 0c be 23 97 a5 bd 04 6a 6a 3d 3d d5 07 be
       -0.13753885 -0.08085468 0.05723001 -0.13264938
000090 50 80 07 be 64 e0 23 bd 50 82 20 3e 2f e4 c1 bc
       -0.13232541 -0.040008917 0.1567471 -0.023668377
0000a0 01 68 39 be bd 05 21 3e c5 42 4a 3e 43 02 26 3e
       -0.1810608 0.15724845 0.19752033 0.162118
0000b0 22 83 63 3d c4 4c dd 3d 81 2a 4d 3d 64 82 88 bd
       0.05554498 0.108056575 0.050089363 -0.06665495
0000c0 0a 4c 0f be a4 bb d3 bb 2f a7 fc 3d 47 06 cd bd
       -0.1399385 -0.0064615775 0.12336575 -0.10010963
0000d0 62 ff 1f 3e a5 54 af 3d ca 7a 33 be 66 77 07 be
       0.15624765 0.085610665 -0.17527309 -0.1322914
0000e0 25 1b 49 be 94 b2 97 bd 2f b5 b8 3c a3 f8 82 bc
       -0.19639261 -0.07407108 0.022547333 -0.0159877
0000f0 d0 f8 b6 bd ff 3e 2d 3e 51 90 22 bd d7 07 2f be
       -0.08934176 0.16918562 -0.039688412 -0.17092834
000100 7d 54 32 3e 32 81 85 3e 49 0e 81 3d 3e f4 44 3e
       0.17415042 0.2607513 0.06301553 0.19233796
000110 d4 65 4b be ed 54 bb 3d 42 ea f9 bd 11 b0 db 3d
       -0.19863063 0.09147058 -0.12202884 0.107269414
000120 94 1c 11 bd cf eb 24 bd 06 b8 33 3e 16 eb 5e bd
       -0.035427645 -0.040263947 0.17550668 -0.054423414
000130 0d c0 d0 bd 6f cf 2f 3e 0c 36 24 be 6a 48 8d 3d
       -0.10192881 0.17168973 -0.16036242 0.068985775
000140 64 62 c2 bc 30 e6 85 bd 1e c2 18 3e 3d ea c8 bd
       -0.023728557 -0.065380454 0.149178 -0.098103024
000150 10 4c 37 be cc 1d 1d be ec ec a7 3d b5 b4 fa 3c
       -0.1790011 -0.15343398 0.08199486 0.030603746
000160 b1 6e dc bc 1e d1 4c 3e 9f 55 1c be 2a 54 4e bd
       -0.02690825 0.20001647 -0.15267037 -0.050373234
000170 fd 04 a2 bd fe a2 33 bd a0 93 3e be f3 56 57 be
       -0.07911108 -0.043856613 -0.18611002 -0.21029262
000180 63 6f 65 3e 05 58 ca 3d 60 73 99 bb 72 01 0b 3d
       0.22405772 0.0988007 -0.004682943 0.033936925
000190 af 7f ad bd 4a ec 0a 3e 49 cb 0a bd 21 10 f5 3d
       -0.08471619 0.135667 -0.033885274 0.11965967
0001a0 f5 5d f8 3d 84 74 09 be 56 cf 97 3d 6e 8b d8 bd
       0.12127296 -0.13423353 0.07412593 -0.10573469
0001b0 d3 05 02 3c 60 2d 0a 3c e2 16 23 be 97 52 5c 3d
       0.007935959 0.00843367 -0.15926698 0.0537897
0001c0 39 83 ad bc ea 42 7b be fa 6c ba 3d f9 15 d2 bd
       -0.021180736 -0.24537244 0.09102817 -0.10258097
0001d0 ee ae 31 3e 5b 0f 6b 3e fd 08 b6 3d 58 5b 97 bd
       0.17351887 0.22955076 0.08888433 -0.07390469
0001e0 5a 31 7b 3d 72 98 74 bd 0c f1 c5 3d d2 f1 b1 bd
       0.061326362 -0.059715696 0.09665117 -0.08688702
0001f0 ac ec 13 3e a2 70 1e 3e 52 8f 3b 3e 00 f6 48 3d
       0.14445752 0.15472654 0.18316391 0.04906273
000200 6d e7 cf 3d 50 0d f6 bb f8 f3 27 be 49 22 f4 3d
       0.10151563 -0.007508911 -0.1640166 0.11920602
000210 b1 c7 d5 3d 04 36 7e 3d ff 4c 01 3d 01 8b a4 3d
       0.10438479 0.062063232 0.03156757 0.080343254
000220 95 e5 73 3c b6 1c c4 3c 61 c6 35 bc 11 7f 1e 3d
       0.01488628 0.023939472 -0.0110946605 0.0386954
000230 6e 84 b1 3d c6 87 88 3d e4 7d ff 3d 44 ab 0b bd
       0.08667837 0.06666522 0.124751836 -0.03409888
000240 b4 ab 89 3d 03 7c 9a bd e7 dc 37 3e 9c 31 e8 3b
       0.06722203 -0.075431846 0.17955361 0.007085992
000250 0e cf b6 bd e6 b3 bf 3c 34 df c2 bd 5b 39 20 bd
       -0.08926211 0.023401212 -0.09515229 -0.0391172
000260 fe a0 ca bd b8 f8 ce 3d fa b7 01 3e b0 4b 99 3d
       -0.09893988 0.10106033 0.12667838 0.07485139
000270 bb c8 df bd 2a 05 b0 3d 68 d1 fe 3d 90 dc 9e bc
       -0.10926958 0.08594735 0.12442285 -0.019392282
000280 cf 89 eb 3d b0 0e a9 bd 03 38 fb 3a 6d 0f 8e bd
       0.11500894 -0.082547545 0.0019166473 -0.06936536
000290 a8 c7 0f bd f0 f3 b5 bd fa a9 78 bd c0 32 d4 3d
       -0.035102516 -0.08884418 -0.060708977 0.10361242
0002a0 16 6b 1c bd c4 bd b4 3d 40 9b a9 3c 6e d8 52 3b
       -0.038188063 0.088252574 0.020703912 0.003217246
0002b0 80 3e b2 3d 63 3c f2 3d 92 df 80 3d f3 21 01 3d
       0.08703327 0.11827924 0.06292643 0.031526517
0002c0 05 1a 15 be 16 86 e0 bd c6 e9 cb 3d 0c ef 6a bd
       -0.14560707 -0.10963075 0.09956698 -0.05735688
0002d0 8a be 12 3c 4b 95 bb 3d 03 3a 2c bd 3c dd b6 bc
       0.008956561 0.09159335 -0.04204751 -0.02232229
0002e0 d1 83 cd bc 6e b9 34 3e 90 39 33 3e c6 50 29 bc
       -0.025087269 0.17648861 0.17502427 -0.010334199
0002f0 e6 1a 83 bc 52 72 3d bd 8a 5b 25 bd bd ad 87 bd
       -0.016004037 -0.046251602 -0.0403705 -0.06624935
000300 22 bc 8d bd 0b 0f ec bc e4 ef 9c 3d ce f0 b8 bd
       -0.06920649 -0.028815767 0.07662943 -0.09030305
000310 14 f7 7b bd f8 76 4e 3d 2c 79 f0 bd c2 9f 65 3d
       -0.06151493 0.050406426 -0.11741862 0.05606056
000320 e5 e9 fa 3c 38 f2 c0 bd 6e 25 0b 3d 2a ab 8d bc
       0.030629108 -0.094211996 0.033971243 -0.017293531
000330 2f 97 ab 39 ca e1 11 bd 00 26 92 bd ee fd 1c 3d
       0.00032728302 -0.03561572 -0.07136154 0.038328104
000340 c5 34 53 bd 3a a2 f0 bd dc c5 9e 3d ce 36 e2 3c
       -0.051563997 -0.11749692 0.077525824 0.027614024
000350 0e 0f 00 3d 1c df 42 3d 1f 0b 3e 3d bd f3 96 bc
       0.031264357 0.047576055 0.046397325 -0.01842677
000360 c4 41 f7 bd 54 67 72 bc 6a 72 90 bd 6f 84 ea bd
       -0.12073091 -0.014795143 -0.07053073 -0.11451041
000370 a2 59 3b 3d 76 f5 e1 bd 0e ca ec 3b 48 d8 ae bd
       0.045739777 -0.11033146 0.0072262352 -0.08537346
000380 43 dd da bd 43 d8 67 3d 0e 52 0b 3c a2 8b 14 3e
       -0.106867336 0.056602728 0.00850345 0.1450639
000390 6c 24 28 bd f4 e3 2a 3e 0a 2e a0 bd 24 4a 8d 3d
       -0.04105036 0.1668852 -0.07821281 0.06898907
0003a0 19 51 e9 3d 3c 61 b1 bd 9c 06 d0 3d cc 7f 13 3d
       0.11392421 -0.08661124 0.10157511 0.03601055
0003b0 20 d9 2b bd 5c 8a 02 be fb 86 52 3d 3a 7a a2 3d
       -0.041955113 -0.12748092 0.05139826 0.07933469
0003c0 23 73 9f 3b cc 11 e1 3d 7b 36 f0 3c ef 1c ae 3d
       0.0048660203 0.109897226 0.029322853 0.085016124
0003d0 13 f4 f5 bc 9d 0a 5f bd 02 7e aa 3d 5f b8 da bd
       -0.03002361 -0.05445348 0.08324815 -0.10679697
0003e0 31 2a dd 3d 4c 36 29 3d 1e c8 97 bd ef 9f 39 bd
       0.10799063 0.041311547 -0.07411216 -0.04531854
0003f0 6f 85 88 bc 99 9c 1a 3d 51 b6 d8 3a 6f 4a 01 3d
       -0.016665189 0.037747 0.0016533827 0.031565126

fc.bias f4 [11]
000000 20 3f 13 be 00 49 96 bd e7 c0 d5 bc fa 03 86 3d
       -0.14379549 -0.073381424 -0.02609296 0.06543727
000010 18 35 f3 bb af e6 1d 3d ed f8 02 be 65 4f d4 bc
       -0.0074221008 0.038550075 -0.1279027 -0.025916765
000020 6c 81 55 39 93 d5 b0 bc 2c 5d e6 bb
       0.00020361476 -0.021586215 -0.00703015
